…
 batch_normalization (BatchNorm  (None, 180, 180, 12  512        ['conv2d_2[0][0]']
 alization)                     8)
 conv2d_3 (Conv2D)              (None, 180, 180, 12  147584      ['batch_normalization[0][0]']
                                8)
 add (Add)                      (None, 180, 180, 12  0           ['re_lu_1[0][0]',
                                8)                                'conv2d_3[0][0]']
 re_lu_2 (ReLU)                 (None, 180, 180, 12  0           ['add[0][0]']
                                8)
 batch_normalization_1 (BatchNo  (None, 180, 180, 12  512        ['re_lu_2[0][0]']
 rmalization)                   8)
 conv2d_4 (Conv2D)              (None, 90, 90, 128)  147584      ['batch_normalization_1[0][0]']
 conv2d_5 (Conv2D)              (None, 90, 90, 64)   73792       ['conv2d_4[0][0]']
 re_lu_3 (ReLU)                 (None, 90, 90, 64)   0           ['conv2d_5[0][0]']
 conv2d_6 (Conv2D)              (None, 90, 90, 64)   36928       ['re_lu_3[0][0]']
 re_lu_4 (ReLU)                 (None, 90, 90, 64)   0           ['conv2d_6[0][0]']
 conv2d_7 (Conv2D)              (None, 90, 90, 64)   36928       ['re_lu_4[0][0]']
 batch_normalization_2 (BatchNo  (None, 90, 90, 64)  256         ['conv2d_7[0][0]']
 rmalization)
 conv2d_8 (Conv2D)              (None, 90, 90, 64)   36928       ['batch_normalization_2[0][0]']
 add_1 (Add)                    (None, 90, 90, 64)   0           ['re_lu_4[0][0]',
                                                                  'conv2d_8[0][0]']
 re_lu_5 (ReLU)                 (None, 90, 90, 64)   0           ['add_1[0][0]']
 batch_normalization_3 (BatchNo  (None, 90, 90, 64)  256         ['re_lu_5[0][0]']
 rmalization)
 conv2d_9 (Conv2D)              (None, 45, 45, 64)   36928       ['batch_normalization_3[0][0]']
 conv2d_10 (Conv2D)             (None, 45, 45, 32)   18464       ['conv2d_9[0][0]']
 re_lu_6 (ReLU)                 (None, 45, 45, 32)   0           ['conv2d_10[0][0]']
 conv2d_11 (Conv2D)             (None, 45, 45, 32)   9248        ['re_lu_6[0][0]']
 re_lu_7 (ReLU)                 (None, 45, 45, 32)   0           ['conv2d_11[0][0]']
 conv2d_12 (Conv2D)             (None, 45, 45, 32)   9248        ['re_lu_7[0][0]']
 re_lu_8 (ReLU)                 (None, 45, 45, 32)   0           ['conv2d_12[0][0]']
 conv2d_13 (Conv2D)             (None, 45, 45, 32)   9248        ['re_lu_8[0][0]']
 batch_normalization_4 (BatchNo  (None, 45, 45, 32)  128         ['conv2d_13[0][0]']
 rmalization)
 conv2d_14 (Conv2D)             (None, 45, 45, 32)   9248        ['batch_normalization_4[0][0]']
 add_2 (Add)                    (None, 45, 45, 32)   0           ['re_lu_8[0][0]',
                                                                  'conv2d_14[0][0]']
 re_lu_9 (ReLU)                 (None, 45, 45, 32)   0           ['add_2[0][0]']
 batch_normalization_5 (BatchNo  (None, 45, 45, 32)  128         ['re_lu_9[0][0]']
 rmalization)
 conv2d_15 (Conv2D)             (None, 23, 23, 32)   9248        ['batch_normalization_5[0][0]']
 conv2d_16 (Conv2D)             (None, 23, 23, 16)   4624        ['conv2d_15[0][0]']
 re_lu_10 (ReLU)                (None, 23, 23, 16)   0           ['conv2d_16[0][0]']
 conv2d_17 (Conv2D)             (None, 23, 23, 16)   2320        ['re_lu_10[0][0]']
 re_lu_11 (ReLU)                (None, 23, 23, 16)   0           ['conv2d_17[0][0]']
 conv2d_18 (Conv2D)             (None, 23, 23, 16)   2320        ['re_lu_11[0][0]']
 re_lu_12 (ReLU)                (None, 23, 23, 16)   0           ['conv2d_18[0][0]']
 conv2d_19 (Conv2D)             (None, 23, 23, 16)   2320        ['re_lu_12[0][0]']
 batch_normalization_6 (BatchNo  (None, 23, 23, 16)  64          ['conv2d_19[0][0]']
 rmalization)
 conv2d_20 (Conv2D)             (None, 23, 23, 16)   2320        ['batch_normalization_6[0][0]']
 add_3 (Add)                    (None, 23, 23, 16)   0           ['re_lu_12[0][0]',
                                                                  'conv2d_20[0][0]']
 re_lu_13 (ReLU)                (None, 23, 23, 16)   0           ['add_3[0][0]']
 batch_normalization_7 (BatchNo  (None, 23, 23, 16)  64          ['re_lu_13[0][0]']
 rmalization)
 conv2d_21 (Conv2D)             (None, 12, 12, 16)   2320        ['batch_normalization_7[0][0]']
 conv2d_22 (Conv2D)             (None, 12, 12, 8)    1160        ['conv2d_21[0][0]']
 re_lu_14 (ReLU)                (None, 12, 12, 8)    0           ['conv2d_22[0][0]']
 conv2d_23 (Conv2D)             (None, 12, 12, 8)    584         ['re_lu_14[0][0]']
 re_lu_15 (ReLU)                (None, 12, 12, 8)    0           ['conv2d_23[0][0]']
 conv2d_24 (Conv2D)             (None, 12, 12, 8)    584         ['re_lu_15[0][0]']
 re_lu_16 (ReLU)                (None, 12, 12, 8)    0           ['conv2d_24[0][0]']
 conv2d_25 (Conv2D)             (None, 12, 12, 8)    584         ['re_lu_16[0][0]']
 batch_normalization_8 (BatchNo  (None, 12, 12, 8)   32          ['conv2d_25[0][0]']
 rmalization)
 conv2d_26 (Conv2D)             (None, 12, 12, 8)    584         ['batch_normalization_8[0][0]']
 add_4 (Add)                    (None, 12, 12, 8)    0           ['re_lu_16[0][0]',
                                                                  'conv2d_26[0][0]']
 re_lu_17 (ReLU)                (None, 12, 12, 8)    0           ['add_4[0][0]']
 batch_normalization_9 (BatchNo  (None, 12, 12, 8)   32          ['re_lu_17[0][0]']
 rmalization)
 flatten (Flatten)              (None, 1152)         0           ['batch_normalization_9[0][0]']
 dense (Dense)                  (None, 10)           11530       ['flatten[0][0]']
==================================================================================================
Total params: 913,362
Trainable params: 912,370
Non-trainable params: 992
__________________________________________________________________________________________________
Epoch 1/4
2022-12-27 12:59:35.291416: I tensorflow/core/common_runtime/executor.cc:1195] [/device:CPU:0] Executor start aborting: INVALID_ARGUMENT: You must feed a value for placeholder tensor 'Placeholder/_4' with dtype int32 and shape [5400]
…
