…
	 [[{{node Placeholder/_0}}]]
2022-12-27 11:55:45.643472: I tensorflow/core/common_runtime/executor.cc:1195] [/device:CPU:0] Executor start aborting: INVALID_ARGUMENT: You must feed a value for placeholder tensor 'Placeholder/_4' with dtype int32 and shape [21600]
	 [[{{node Placeholder/_4}}]]
(32, 180, 180, 3)
(32,)
Model: "my-model"
_________________________________________________________________
 Layer (type)                Output Shape              Param #
=================================================================
 input_1 (InputLayer)        [(None, 180, 180, 3)]     0
 conv2d (Conv2D)             (None, 180, 180, 128)     3584
 conv2d_1 (Conv2D)           (None, 180, 180, 128)     147584
 conv2d_2 (Conv2D)           (None, 90, 90, 128)       147584
 conv2d_3 (Conv2D)           (None, 90, 90, 64)        73792
 conv2d_4 (Conv2D)           (None, 90, 90, 64)        36928
 conv2d_5 (Conv2D)           (None, 45, 45, 64)        36928
 conv2d_6 (Conv2D)           (None, 45, 45, 32)        18464
 conv2d_7 (Conv2D)           (None, 45, 45, 32)        9248
 conv2d_8 (Conv2D)           (None, 45, 45, 32)        9248
 conv2d_9 (Conv2D)           (None, 23, 23, 32)        9248
 conv2d_10 (Conv2D)          (None, 23, 23, 16)        4624
 conv2d_11 (Conv2D)          (None, 23, 23, 16)        2320
 conv2d_12 (Conv2D)          (None, 23, 23, 16)        2320
 conv2d_13 (Conv2D)          (None, 12, 12, 16)        2320
 conv2d_14 (Conv2D)          (None, 12, 12, 8)         1160
 conv2d_15 (Conv2D)          (None, 12, 12, 8)         584
 conv2d_16 (Conv2D)          (None, 12, 12, 8)         584
 flatten (Flatten)           (None, 1152)              0
 dense (Dense)               (None, 10)                11530
=================================================================
Total params: 518,050
Trainable params: 518,050
Non-trainable params: 0
_________________________________________________________________
Epoch 1/30
2022-12-27 11:55:46.109487: I tensorflow/core/common_runtime/executor.cc:1195] [/device:CPU:0] Executor start aborting: INVALID_ARGUMENT: You must feed a value for placeholder tensor 'Placeholder/_4' with dtype int32 and shape [21600]
…
