…
 ormalization)                  8)
 conv2d_30 (Conv2D)             (None, 180, 180, 12  147584      ['batch_normalization_10[0][0]']
                                8)
 add_5 (Add)                    (None, 180, 180, 12  0           ['re_lu_19[0][0]',
                                8)                                'conv2d_30[0][0]']
 re_lu_20 (ReLU)                (None, 180, 180, 12  0           ['add_5[0][0]']
                                8)
 batch_normalization_11 (BatchN  (None, 180, 180, 12  512        ['re_lu_20[0][0]']
 ormalization)                  8)
 conv2d_31 (Conv2D)             (None, 90, 90, 128)  147584      ['batch_normalization_11[0][0]']
 conv2d_32 (Conv2D)             (None, 90, 90, 64)   73792       ['conv2d_31[0][0]']
 re_lu_21 (ReLU)                (None, 90, 90, 64)   0           ['conv2d_32[0][0]']
 conv2d_33 (Conv2D)             (None, 90, 90, 64)   36928       ['re_lu_21[0][0]']
 re_lu_22 (ReLU)                (None, 90, 90, 64)   0           ['conv2d_33[0][0]']
 conv2d_34 (Conv2D)             (None, 90, 90, 64)   36928       ['re_lu_22[0][0]']
 batch_normalization_12 (BatchN  (None, 90, 90, 64)  256         ['conv2d_34[0][0]']
 ormalization)
 conv2d_35 (Conv2D)             (None, 90, 90, 64)   36928       ['batch_normalization_12[0][0]']
 add_6 (Add)                    (None, 90, 90, 64)   0           ['re_lu_22[0][0]',
                                                                  'conv2d_35[0][0]']
 re_lu_23 (ReLU)                (None, 90, 90, 64)   0           ['add_6[0][0]']
 batch_normalization_13 (BatchN  (None, 90, 90, 64)  256         ['re_lu_23[0][0]']
 ormalization)
 conv2d_36 (Conv2D)             (None, 45, 45, 64)   36928       ['batch_normalization_13[0][0]']
 conv2d_37 (Conv2D)             (None, 45, 45, 32)   18464       ['conv2d_36[0][0]']
 re_lu_24 (ReLU)                (None, 45, 45, 32)   0           ['conv2d_37[0][0]']
 conv2d_38 (Conv2D)             (None, 45, 45, 32)   9248        ['re_lu_24[0][0]']
 re_lu_25 (ReLU)                (None, 45, 45, 32)   0           ['conv2d_38[0][0]']
 conv2d_39 (Conv2D)             (None, 45, 45, 32)   9248        ['re_lu_25[0][0]']
 re_lu_26 (ReLU)                (None, 45, 45, 32)   0           ['conv2d_39[0][0]']
 conv2d_40 (Conv2D)             (None, 45, 45, 32)   9248        ['re_lu_26[0][0]']
 batch_normalization_14 (BatchN  (None, 45, 45, 32)  128         ['conv2d_40[0][0]']
 ormalization)
 conv2d_41 (Conv2D)             (None, 45, 45, 32)   9248        ['batch_normalization_14[0][0]']
 add_7 (Add)                    (None, 45, 45, 32)   0           ['re_lu_26[0][0]',
                                                                  'conv2d_41[0][0]']
 re_lu_27 (ReLU)                (None, 45, 45, 32)   0           ['add_7[0][0]']
 batch_normalization_15 (BatchN  (None, 45, 45, 32)  128         ['re_lu_27[0][0]']
 ormalization)
 conv2d_42 (Conv2D)             (None, 23, 23, 32)   9248        ['batch_normalization_15[0][0]']
 conv2d_43 (Conv2D)             (None, 23, 23, 16)   4624        ['conv2d_42[0][0]']
 re_lu_28 (ReLU)                (None, 23, 23, 16)   0           ['conv2d_43[0][0]']
 conv2d_44 (Conv2D)             (None, 23, 23, 16)   2320        ['re_lu_28[0][0]']
 re_lu_29 (ReLU)                (None, 23, 23, 16)   0           ['conv2d_44[0][0]']
 conv2d_45 (Conv2D)             (None, 23, 23, 16)   2320        ['re_lu_29[0][0]']
 re_lu_30 (ReLU)                (None, 23, 23, 16)   0           ['conv2d_45[0][0]']
 conv2d_46 (Conv2D)             (None, 23, 23, 16)   2320        ['re_lu_30[0][0]']
 batch_normalization_16 (BatchN  (None, 23, 23, 16)  64          ['conv2d_46[0][0]']
 ormalization)
 conv2d_47 (Conv2D)             (None, 23, 23, 16)   2320        ['batch_normalization_16[0][0]']
 add_8 (Add)                    (None, 23, 23, 16)   0           ['re_lu_30[0][0]',
                                                                  'conv2d_47[0][0]']
 re_lu_31 (ReLU)                (None, 23, 23, 16)   0           ['add_8[0][0]']
 batch_normalization_17 (BatchN  (None, 23, 23, 16)  64          ['re_lu_31[0][0]']
 ormalization)
 conv2d_48 (Conv2D)             (None, 12, 12, 16)   2320        ['batch_normalization_17[0][0]']
 conv2d_49 (Conv2D)             (None, 12, 12, 8)    1160        ['conv2d_48[0][0]']
 re_lu_32 (ReLU)                (None, 12, 12, 8)    0           ['conv2d_49[0][0]']
 conv2d_50 (Conv2D)             (None, 12, 12, 8)    584         ['re_lu_32[0][0]']
 re_lu_33 (ReLU)                (None, 12, 12, 8)    0           ['conv2d_50[0][0]']
 conv2d_51 (Conv2D)             (None, 12, 12, 8)    584         ['re_lu_33[0][0]']
 re_lu_34 (ReLU)                (None, 12, 12, 8)    0           ['conv2d_51[0][0]']
 conv2d_52 (Conv2D)             (None, 12, 12, 8)    584         ['re_lu_34[0][0]']
 batch_normalization_18 (BatchN  (None, 12, 12, 8)   32          ['conv2d_52[0][0]']
 ormalization)
 conv2d_53 (Conv2D)             (None, 12, 12, 8)    584         ['batch_normalization_18[0][0]']
 add_9 (Add)                    (None, 12, 12, 8)    0           ['re_lu_34[0][0]',
                                                                  'conv2d_53[0][0]']
 re_lu_35 (ReLU)                (None, 12, 12, 8)    0           ['add_9[0][0]']
 batch_normalization_19 (BatchN  (None, 12, 12, 8)   32          ['re_lu_35[0][0]']
 ormalization)
 flatten_1 (Flatten)            (None, 1152)         0           ['batch_normalization_19[0][0]']
 dense_1 (Dense)                (None, 10)           11530       ['flatten_1[0][0]']
==================================================================================================
Total params: 913,362
Trainable params: 912,370
Non-trainable params: 992
__________________________________________________________________________________________________
Epoch 1/40
2022-12-27 13:33:01.765947: I tensorflow/core/common_runtime/executor.cc:1195] [/device:CPU:0] Executor start aborting: INVALID_ARGUMENT: You must feed a value for placeholder tensor 'Placeholder/_0' with dtype string and shape [21600]
…
