…
 ormalization)                  8)
 conv2d_50 (Conv2D)             (None, 180, 180, 12  147584      ['batch_normalization_20[0][0]']
                                8)
 add_10 (Add)                   (None, 180, 180, 12  0           ['conv2d_48[0][0]',
                                8)                                'conv2d_50[0][0]']
 re_lu_10 (ReLU)                (None, 180, 180, 12  0           ['add_10[0][0]']
                                8)
 batch_normalization_21 (BatchN  (None, 180, 180, 12  512        ['re_lu_10[0][0]']
 ormalization)                  8)
 conv2d_51 (Conv2D)             (None, 90, 90, 128)  147584      ['batch_normalization_21[0][0]']
 conv2d_52 (Conv2D)             (None, 90, 90, 64)   73792       ['conv2d_51[0][0]']
 conv2d_53 (Conv2D)             (None, 90, 90, 64)   36928       ['conv2d_52[0][0]']
 batch_normalization_22 (BatchN  (None, 90, 90, 64)  256         ['conv2d_53[0][0]']
 ormalization)
 conv2d_54 (Conv2D)             (None, 90, 90, 64)   36928       ['batch_normalization_22[0][0]']
 add_11 (Add)                   (None, 90, 90, 64)   0           ['conv2d_52[0][0]',
                                                                  'conv2d_54[0][0]']
 re_lu_11 (ReLU)                (None, 90, 90, 64)   0           ['add_11[0][0]']
 batch_normalization_23 (BatchN  (None, 90, 90, 64)  256         ['re_lu_11[0][0]']
 ormalization)
 conv2d_55 (Conv2D)             (None, 45, 45, 64)   36928       ['batch_normalization_23[0][0]']
 conv2d_56 (Conv2D)             (None, 45, 45, 32)   18464       ['conv2d_55[0][0]']
 conv2d_57 (Conv2D)             (None, 45, 45, 32)   9248        ['conv2d_56[0][0]']
 batch_normalization_24 (BatchN  (None, 45, 45, 32)  128         ['conv2d_57[0][0]']
 ormalization)
 conv2d_58 (Conv2D)             (None, 45, 45, 32)   9248        ['batch_normalization_24[0][0]']
 add_12 (Add)                   (None, 45, 45, 32)   0           ['conv2d_56[0][0]',
                                                                  'conv2d_58[0][0]']
 re_lu_12 (ReLU)                (None, 45, 45, 32)   0           ['add_12[0][0]']
 batch_normalization_25 (BatchN  (None, 45, 45, 32)  128         ['re_lu_12[0][0]']
 ormalization)
 conv2d_59 (Conv2D)             (None, 23, 23, 32)   9248        ['batch_normalization_25[0][0]']
 conv2d_60 (Conv2D)             (None, 23, 23, 16)   4624        ['conv2d_59[0][0]']
 conv2d_61 (Conv2D)             (None, 23, 23, 16)   2320        ['conv2d_60[0][0]']
 batch_normalization_26 (BatchN  (None, 23, 23, 16)  64          ['conv2d_61[0][0]']
 ormalization)
 conv2d_62 (Conv2D)             (None, 23, 23, 16)   2320        ['batch_normalization_26[0][0]']
 add_13 (Add)                   (None, 23, 23, 16)   0           ['conv2d_60[0][0]',
                                                                  'conv2d_62[0][0]']
 re_lu_13 (ReLU)                (None, 23, 23, 16)   0           ['add_13[0][0]']
 batch_normalization_27 (BatchN  (None, 23, 23, 16)  64          ['re_lu_13[0][0]']
 ormalization)
 conv2d_63 (Conv2D)             (None, 12, 12, 16)   2320        ['batch_normalization_27[0][0]']
 conv2d_64 (Conv2D)             (None, 12, 12, 8)    1160        ['conv2d_63[0][0]']
 conv2d_65 (Conv2D)             (None, 12, 12, 8)    584         ['conv2d_64[0][0]']
 batch_normalization_28 (BatchN  (None, 12, 12, 8)   32          ['conv2d_65[0][0]']
 ormalization)
 conv2d_66 (Conv2D)             (None, 12, 12, 8)    584         ['batch_normalization_28[0][0]']
 add_14 (Add)                   (None, 12, 12, 8)    0           ['conv2d_64[0][0]',
                                                                  'conv2d_66[0][0]']
 re_lu_14 (ReLU)                (None, 12, 12, 8)    0           ['add_14[0][0]']
 batch_normalization_29 (BatchN  (None, 12, 12, 8)   32          ['re_lu_14[0][0]']
 ormalization)
 flatten_1 (Flatten)            (None, 1152)         0           ['batch_normalization_29[0][0]']
 dense_2 (Dense)                (None, 10)           11530       ['flatten_1[0][0]']
==================================================================================================
Total params: 704,546
Trainable params: 703,554
Non-trainable params: 992
__________________________________________________________________________________________________
Epoch 1/30
[34m[1mwandb[39m[22m: [33mWARNING[39m When using `save_best_only`, ensure that the `filepath` argument contains formatting placeholders like `{epoch:02d}` or `{batch:02d}`. This ensures correct interpretation of the logged artifacts.
…
