…
2022-12-27 12:36:21.518406: I tensorflow/core/common_runtime/executor.cc:1195] [/device:CPU:0] Executor start aborting: INVALID_ARGUMENT: You must feed a value for placeholder tensor 'Placeholder/_4' with dtype int32 and shape [21600]
	 [[{{node Placeholder/_4}}]]
Found 27000 files belonging to 10 classes.
Using 5400 files for validation.
['AnnualCrop', 'Forest', 'HerbaceousVegetation', 'Highway', 'Industrial', 'Pasture', 'PermanentCrop', 'Residential', 'River', 'SeaLake']
(32, 180, 180, 3)
(32,)
Model: "my-model"
_________________________________________________________________
 Layer (type)                Output Shape              Param #
=================================================================
 input_1 (InputLayer)        [(None, 180, 180, 3)]     0
 conv2d (Conv2D)             (None, 180, 180, 128)     3584
 conv2d_1 (Conv2D)           (None, 180, 180, 128)     147584
 conv2d_2 (Conv2D)           (None, 90, 90, 128)       147584
 conv2d_3 (Conv2D)           (None, 90, 90, 64)        73792
 conv2d_4 (Conv2D)           (None, 90, 90, 64)        36928
 conv2d_5 (Conv2D)           (None, 45, 45, 64)        36928
 conv2d_6 (Conv2D)           (None, 45, 45, 32)        18464
 conv2d_7 (Conv2D)           (None, 45, 45, 32)        9248
 conv2d_8 (Conv2D)           (None, 45, 45, 32)        9248
 conv2d_9 (Conv2D)           (None, 23, 23, 32)        9248
 conv2d_10 (Conv2D)          (None, 23, 23, 16)        4624
 conv2d_11 (Conv2D)          (None, 23, 23, 16)        2320
 conv2d_12 (Conv2D)          (None, 23, 23, 16)        2320
 conv2d_13 (Conv2D)          (None, 12, 12, 16)        2320
 conv2d_14 (Conv2D)          (None, 12, 12, 8)         1160
 conv2d_15 (Conv2D)          (None, 12, 12, 8)         584
 conv2d_16 (Conv2D)          (None, 12, 12, 8)         584
 flatten (Flatten)           (None, 1152)              0
 dense (Dense)               (None, 10)                11530
=================================================================
Total params: 518,050
Trainable params: 518,050
Non-trainable params: 0
_________________________________________________________________
2022-12-27 12:36:21.995092: I tensorflow/core/common_runtime/executor.cc:1195] [/device:CPU:0] Executor start aborting: INVALID_ARGUMENT: You must feed a value for placeholder tensor 'Placeholder/_4' with dtype int32 and shape [5400]
…
  6/675 [..............................] - ETA: 1:00 - loss: -24.5905 - categorical_accuracy: 0.0000e+00 - binary_crossentropy: -24.5905WARNING:tensorflow:Callback method `on_train_batch_end` is slow compared to the batch time (batch time: 0.0317s vs `on_train_batch_end` time: 0.0490s). Check your callbacks.
  8/675 [..............................] - ETA: 1:00 - loss: -24.4006 - categorical_accuracy: 0.0000e+00 - binary_crossentropy: -24.4006


 40/675 [>.............................] - ETA: 57s - loss: -28.5591 - categorical_accuracy: 0.0000e+00 - binary_crossentropy: -28.5591Model: "my-model"
_________________________________________________________________
 Layer (type)                Output Shape              Param #
=================================================================
 input_2 (InputLayer)        [(None, 180, 180, 3)]     0
 conv2d_17 (Conv2D)          (None, 180, 180, 128)     3584
 re_lu (ReLU)                (None, 180, 180, 128)     0
 conv2d_18 (Conv2D)          (None, 180, 180, 128)     147584
 re_lu_1 (ReLU)              (None, 180, 180, 128)     0
 conv2d_19 (Conv2D)          (None, 90, 90, 128)       147584
 conv2d_20 (Conv2D)          (None, 90, 90, 64)        73792
 re_lu_2 (ReLU)              (None, 90, 90, 64)        0
 conv2d_21 (Conv2D)          (None, 90, 90, 64)        36928
 re_lu_3 (ReLU)              (None, 90, 90, 64)        0
 conv2d_22 (Conv2D)          (None, 45, 45, 64)        36928
 conv2d_23 (Conv2D)          (None, 45, 45, 32)        18464
 re_lu_4 (ReLU)              (None, 45, 45, 32)        0
 conv2d_24 (Conv2D)          (None, 45, 45, 32)        9248
 re_lu_5 (ReLU)              (None, 45, 45, 32)        0
 conv2d_25 (Conv2D)          (None, 45, 45, 32)        9248
 re_lu_6 (ReLU)              (None, 45, 45, 32)        0
 conv2d_26 (Conv2D)          (None, 23, 23, 32)        9248
 conv2d_27 (Conv2D)          (None, 23, 23, 16)        4624
 re_lu_7 (ReLU)              (None, 23, 23, 16)        0
 conv2d_28 (Conv2D)          (None, 23, 23, 16)        2320
 re_lu_8 (ReLU)              (None, 23, 23, 16)        0
 conv2d_29 (Conv2D)          (None, 23, 23, 16)        2320
 re_lu_9 (ReLU)              (None, 23, 23, 16)        0
 conv2d_30 (Conv2D)          (None, 12, 12, 16)        2320
 conv2d_31 (Conv2D)          (None, 12, 12, 8)         1160
 re_lu_10 (ReLU)             (None, 12, 12, 8)         0
 conv2d_32 (Conv2D)          (None, 12, 12, 8)         584
 re_lu_11 (ReLU)             (None, 12, 12, 8)         0
 conv2d_33 (Conv2D)          (None, 12, 12, 8)         584
 re_lu_12 (ReLU)             (None, 12, 12, 8)         0
 flatten_1 (Flatten)         (None, 1152)              0
 dense_1 (Dense)             (None, 10)                11530
=================================================================
Total params: 518,050
Trainable params: 518,050
Non-trainable params: 0
_________________________________________________________________
Epoch 1/4
WARNING:tensorflow:Callback method `on_train_batch_end` is slow compared to the batch time (batch time: 0.0352s vs `on_train_batch_end` time: 0.0565s). Check your callbacks.
  6/675 [..............................] - ETA: 1:08 - loss: 12.5307 - categorical_accuracy: 0.0000e+00 - binary_crossentropy: 12.5307WARNING:tensorflow:Callback method `on_train_batch_end` is slow compared to the batch time (batch time: 0.0352s vs `on_train_batch_end` time: 0.0565s). Check your callbacks.
…
 batch_normalization (BatchNorm  (None, 180, 180, 12  512        ['conv2d_36[0][0]']
 alization)                     8)
 conv2d_37 (Conv2D)             (None, 180, 180, 12  147584      ['batch_normalization[0][0]']
                                8)
 add (Add)                      (None, 180, 180, 12  0           ['re_lu_14[0][0]',
                                8)                                'conv2d_37[0][0]']
 re_lu_15 (ReLU)                (None, 180, 180, 12  0           ['add[0][0]']
                                8)
 batch_normalization_1 (BatchNo  (None, 180, 180, 12  512        ['re_lu_15[0][0]']
 rmalization)                   8)
 conv2d_38 (Conv2D)             (None, 90, 90, 128)  147584      ['batch_normalization_1[0][0]']
 conv2d_39 (Conv2D)             (None, 90, 90, 64)   73792       ['conv2d_38[0][0]']
 re_lu_16 (ReLU)                (None, 90, 90, 64)   0           ['conv2d_39[0][0]']
 conv2d_40 (Conv2D)             (None, 90, 90, 64)   36928       ['re_lu_16[0][0]']
 re_lu_17 (ReLU)                (None, 90, 90, 64)   0           ['conv2d_40[0][0]']
 conv2d_41 (Conv2D)             (None, 90, 90, 64)   36928       ['re_lu_17[0][0]']
 batch_normalization_2 (BatchNo  (None, 90, 90, 64)  256         ['conv2d_41[0][0]']
 rmalization)
 conv2d_42 (Conv2D)             (None, 90, 90, 64)   36928       ['batch_normalization_2[0][0]']
 add_1 (Add)                    (None, 90, 90, 64)   0           ['re_lu_17[0][0]',
                                                                  'conv2d_42[0][0]']
 re_lu_18 (ReLU)                (None, 90, 90, 64)   0           ['add_1[0][0]']
 batch_normalization_3 (BatchNo  (None, 90, 90, 64)  256         ['re_lu_18[0][0]']
 rmalization)
 conv2d_43 (Conv2D)             (None, 45, 45, 64)   36928       ['batch_normalization_3[0][0]']
 conv2d_44 (Conv2D)             (None, 45, 45, 32)   18464       ['conv2d_43[0][0]']
 re_lu_19 (ReLU)                (None, 45, 45, 32)   0           ['conv2d_44[0][0]']
 conv2d_45 (Conv2D)             (None, 45, 45, 32)   9248        ['re_lu_19[0][0]']
 re_lu_20 (ReLU)                (None, 45, 45, 32)   0           ['conv2d_45[0][0]']
 conv2d_46 (Conv2D)             (None, 45, 45, 32)   9248        ['re_lu_20[0][0]']
 re_lu_21 (ReLU)                (None, 45, 45, 32)   0           ['conv2d_46[0][0]']
 conv2d_47 (Conv2D)             (None, 45, 45, 32)   9248        ['re_lu_21[0][0]']
 batch_normalization_4 (BatchNo  (None, 45, 45, 32)  128         ['conv2d_47[0][0]']
 rmalization)
 conv2d_48 (Conv2D)             (None, 45, 45, 32)   9248        ['batch_normalization_4[0][0]']
 add_2 (Add)                    (None, 45, 45, 32)   0           ['re_lu_21[0][0]',
                                                                  'conv2d_48[0][0]']
 re_lu_22 (ReLU)                (None, 45, 45, 32)   0           ['add_2[0][0]']
 batch_normalization_5 (BatchNo  (None, 45, 45, 32)  128         ['re_lu_22[0][0]']
 rmalization)
 conv2d_49 (Conv2D)             (None, 23, 23, 32)   9248        ['batch_normalization_5[0][0]']
 conv2d_50 (Conv2D)             (None, 23, 23, 16)   4624        ['conv2d_49[0][0]']
 re_lu_23 (ReLU)                (None, 23, 23, 16)   0           ['conv2d_50[0][0]']
 conv2d_51 (Conv2D)             (None, 23, 23, 16)   2320        ['re_lu_23[0][0]']
 re_lu_24 (ReLU)                (None, 23, 23, 16)   0           ['conv2d_51[0][0]']
 conv2d_52 (Conv2D)             (None, 23, 23, 16)   2320        ['re_lu_24[0][0]']
 re_lu_25 (ReLU)                (None, 23, 23, 16)   0           ['conv2d_52[0][0]']
 conv2d_53 (Conv2D)             (None, 23, 23, 16)   2320        ['re_lu_25[0][0]']
 batch_normalization_6 (BatchNo  (None, 23, 23, 16)  64          ['conv2d_53[0][0]']
 rmalization)
 conv2d_54 (Conv2D)             (None, 23, 23, 16)   2320        ['batch_normalization_6[0][0]']
 add_3 (Add)                    (None, 23, 23, 16)   0           ['re_lu_25[0][0]',
                                                                  'conv2d_54[0][0]']
 re_lu_26 (ReLU)                (None, 23, 23, 16)   0           ['add_3[0][0]']
 batch_normalization_7 (BatchNo  (None, 23, 23, 16)  64          ['re_lu_26[0][0]']
 rmalization)
 conv2d_55 (Conv2D)             (None, 12, 12, 16)   2320        ['batch_normalization_7[0][0]']
 conv2d_56 (Conv2D)             (None, 12, 12, 8)    1160        ['conv2d_55[0][0]']
 re_lu_27 (ReLU)                (None, 12, 12, 8)    0           ['conv2d_56[0][0]']
 conv2d_57 (Conv2D)             (None, 12, 12, 8)    584         ['re_lu_27[0][0]']
 re_lu_28 (ReLU)                (None, 12, 12, 8)    0           ['conv2d_57[0][0]']
 conv2d_58 (Conv2D)             (None, 12, 12, 8)    584         ['re_lu_28[0][0]']
 re_lu_29 (ReLU)                (None, 12, 12, 8)    0           ['conv2d_58[0][0]']
 conv2d_59 (Conv2D)             (None, 12, 12, 8)    584         ['re_lu_29[0][0]']
 batch_normalization_8 (BatchNo  (None, 12, 12, 8)   32          ['conv2d_59[0][0]']
 rmalization)
 conv2d_60 (Conv2D)             (None, 12, 12, 8)    584         ['batch_normalization_8[0][0]']
 add_4 (Add)                    (None, 12, 12, 8)    0           ['re_lu_29[0][0]',
                                                                  'conv2d_60[0][0]']
 re_lu_30 (ReLU)                (None, 12, 12, 8)    0           ['add_4[0][0]']
 batch_normalization_9 (BatchNo  (None, 12, 12, 8)   32          ['re_lu_30[0][0]']
 rmalization)
 flatten_2 (Flatten)            (None, 1152)         0           ['batch_normalization_9[0][0]']
 dense_2 (Dense)                (None, 10)           11530       ['flatten_2[0][0]']
==================================================================================================
Total params: 913,362
Trainable params: 912,370
Non-trainable params: 992
__________________________________________________________________________________________________
Epoch 1/4
  2/675 [..............................] - ETA: 2:22 - loss: 14.9986 - categorical_accuracy: 0.1875 - binary_crossentropy: 14.9986
…
